kllstm_epoch_999.pt (torch, 18253 bytes, 9 tensors)

lstm1.weight_ih f4 [80, 1]
0.31407127 0.296482 0.023263944 -0.548073 0.22718133 -0.13048631 0.52099013 -0.05944079
-0.4747284 0.24426484 0.05051987 -0.47298074 0.7543479 0.24280581 -0.12775908 0.56753045
0.07485552 -0.13008723 0.66683877 -0.38620442 0.99895346 1.0290138 0.021048501 -0.3390578
-1.3512735 -1.2113644 0.61491764 0.043115225 -2.3621008 -0.28648898 -0.5065798 -2.519707
-12.76391 0.3856136 -0.33729488 0.4932502 0.025143001 -0.5931041 -0.4368686 -1.5689008
-0.29447186 -0.0064818365 0.1008214 -0.31449452 -0.38033962 -0.113747045 0.36170775 0.64374804
-2.4464853 -0.4409972 0.35125807 0.12340607 -0.08164381 -0.6131499 0.09947176 -0.05005477
0.057663947 0.08872319 -0.10557181 -0.0830907 -1.8443553 -2.2422583 -0.12207082 -0.3610024
-2.4565778 -0.852295 -0.17842561 -0.17373335 -0.75495166 0.1192055 -0.26789805 -2.6102755
-1.4934268 -1.0096056 -0.7438641 -1.2196586 -0.30687308 -0.8285723 -2.1887941 -0.68562025
00000000: f3cd a03e 7dcc 973e 0794 be3c 834e 0cbf
00000010: 39a2 683e 349e 05be 9c5f 053f 3078 73bd
00000020: 9a0f f3be 9020 7a3e eced 4e3d 882a f2be
00000030: f21c 413f 16a2 783e 47d3 02be ad49 113f
00000040: da4d 993d 9635 05be f2b5 2a3f 96bc c5be
00000050: 6abb 7f3f b9b6 833f e86d ac3c fc98 adbe
00000060: 88f6 acbf fd0d 9bbf 3e6b 1d3f 9799 303d
00000070: a92c 17c0 afae 92be 37af 01bf e142 21c0
00000080: fa38 4cc1 256f c53e eab1 acbe 4a8b fc3e
00000090: b2f8 cd3c acd5 17bf 3ead dfbe bed1 c8bf
000000a0: 04c5 96be 9665 d4bb 737b ce3d 6d05 a1be
000000b0: e0bb c2be 36f4 e8bd c231 b93e accc 243f
000000c0: 3793 1cc0 63ca e1be 19d8 b33e 52bc fc3d
000000d0: df34 a7bd 64f7 1cbf dab7 cb3d 3b06 4dbd
000000e0: 0831 6c3d 81b4 b53d 0836 d8bd 752b aabd
000000f0: d613 ecbf 2981 0fc0 4400 fabd 4ed5 b8be
00000100: 9238 1dc0 0130 5abf 34b5 36be 28e7 31be
00000110: 8344 41bf 0322 f43d ef29 89be c10e 27c0
00000120: 9c28 bfbf c23a 81bf e16d 3ebf c61d 9cbf
00000130: 781e 9dbe 501d 54bf 3415 0cc0 cf84 2fbf

lstm1.weight_hh f4 [80, 20]
0.008118344 0.18143322 -0.1754476 -0.074453115 0.08477806 -0.22442403 -0.025082884 0.1821626
-0.4891616 0.13593328 -0.17136952 0.23667486 0.23536234 -0.323338 -0.08676811 -0.64692336
0.5353029 0.19775648 0.27095512 -0.48448637 0.11169899 0.06153846 0.20140265 0.42734817
-0.009824466 -0.21820681 -0.13554499 -0.26468343 0.0566927 0.6293394 -0.30784756 0.20594636
0.16660151 0.3436638 -0.025593229 -0.019190708 0.23751621 0.18401559 0.52758074 -0.2979926
0.14735153 0.33423504 0.51922864 -0.14978188 -0.16507779 -0.097015806 -0.10228938 -0.2491321
-0.31899798 0.25915778 0.051154576 0.1679256 0.80964094 -0.1587751 0.010474178 0.034473717
0.013737514 0.24101639 0.24415593 -0.276096 -0.017931342 0.09875965 0.3643485 0.090388775
0.16870372 -0.0679409 -0.075854175 -0.0529459 -0.1768795 0.08099845 -0.13481699 0.25864854
-0.28164428 0.29286984 -0.11314388 -0.0039943843 -0.046576127 0.13702504 0.10592015 -0.12887453
-0.07329081 0.36020926 0.40708277 0.35081086 1.0401677 -2.0808303 0.20850335 -0.45995042
0.83565444 0.37859368 -0.41008055 0.4764116 -0.3196034 0.23678707 -0.6186555 -0.5252939
0.8928944 0.5181024 -0.32708612 0.5185813 0.20533437 0.13176017 0.33605227 0.098378114
0.18937612 -0.1976586 0.07658416 -0.16754326 0.35737434 0.1806301 -0.22836076 0.28933626
0.33379093 0.17499062 -0.0511113 -0.18382524 -0.006172954 0.15064873 0.24216118 -0.25287545
0.2770303 1.1130549 0.5192065 1.0497223 2.13972 -1.2122512 -0.24665734 -0.42818657
1.5492228 -0.17890298 -0.40064365 0.65326613 -0.36334062 0.9704895 -0.53101486 -2.4970703
2.0819783 0.49838912 0.3510374 -0.59205246 -0.024944698 0.41386715 0.59710705 0.11826304
0.25927612 -0.5333629 0.2038597 -0.33309922 -1.1255031 0.16077387 -0.3366528 0.60643655
-0.13170257 -0.1539683 -0.6591419 -1.2842714 0.9433155 0.5898599 -0.1374287 0.113181084
-0.09244106 0.8603109 0.85159594 0.019767122 0.45496246 -1.2876154 0.1352993 -0.41958714
0.2066556 0.49865597 -0.60984385 0.82437485 0.4020823 0.036480416 -1.1891603 -0.27049676
1.3847524 1.2793958 -0.06479222 0.19602475 -0.044228137 0.28883937 0.32130733 0.20136893
0.18964913 -0.11581505 0.14877063 -0.062241584 0.028040653 -0.004749659 -0.14072734 0.019217862
0.117435254 -0.110950395 -0.24605101 -0.16378707 0.15167393 -0.07855839 0.27027953 -0.27117294
0.018786158 -0.17056383 0.10720327 0.12720607 0.47413093 0.09885885 0.08641234 0.21988304
-0.18320584 0.087946035 -0.26439235 0.078752905 -0.16420665 0.23014797 -0.2590913 -0.47008604
0.15642163 0.49173832 0.12349863 0.07830047 -0.34765506 0.33746886 -0.11503453 0.21498162
0.273074 -0.16564076 0.3344846 -0.35632795 0.23741572 0.27914923 -0.40599084 0.33061454
-0.18289432 0.1301581 -0.032302197 -0.111883976 -0.13255176 0.3572103 -0.15497103 0.18606123
0.1605236 0.43604818 0.18744788 0.0833489 0.23469156 -0.11573966 -0.14670464 -0.12186508
0.34588793 0.10159723 0.06284251 0.1796969 0.03395614 0.056145348 -0.016718008 -0.2490096
00000000: cd02 053c a1c9 393e 89a8 33be e07a 98bd
00000010: 1fa0 ad3d 6acf 65be 9f7a cdbc d588 3a3e
00000020: 6473 fabe 1832 0b3e 7e7b 2fbe e55a 723e
00000030: d302 713e 8f8c a5be 7bb3 b1bd c59c 25bf
00000040: 9c09 093f ad80 4a3e a1ba 8a3e 990e f8be
00000050: 71c2 e43d c10f 7c3d 7f3c 4e3e 61cd da3e
00000060: ccf6 20bc 9b71 5fbe 4ecc 0abe 9684 87be
00000070: 9b36 683d 631c 213f 329e 9dbe 9ae3 523e
00000080: 9699 2a3e b4f4 af3e e4a8 d1bc d535 9dbc
00000090: 7337 733e 956e 3c3e 880f 073f 7c92 98be
000000a0: 52e3 163e db20 ab3e 2bec 043f 6c60 19be
000000b0: 270a 29be 39b0 c6bd 187d d1bd 7c1c 7fbe
000000c0: b453 a3be 54b0 843e 7687 513d b0f4 2b3e
000000d0: a144 4f3f f195 22be e39b 2b3c 5034 0d3d
000000e0: 4f13 613c 00cd 763e 0304 7a3e 745c 8dbe
000000f0: c0e4 92bc 8042 ca3d e38b ba3e c01d b93d
00000100: abc0 2c3e 9924 8bbd 6f59 9bbd cddd 58bd
00000110: e61f 35be 84e2 a53d 770d 0abe 956d 843e
00000120: ae33 90be 09f3 953e fbb7 e7bd 53e3 82bb
00000130: 9cc6 3ebd 4b50 0c3e aaec d83d aff7 03be
00000140: 7e19 96bd 596d b83e 276d d03e 7b9d b33e
00000150: 3724 853f 532c 05c0 e781 553e 9f7e ebbe
00000160: 73ed 553f 08d7 c13e 14f6 d1be 39ec f33e
00000170: 0fa3 a3be 4f78 723e 3560 1ebf a979 06bf
00000180: ba94 643f 5ca2 043f d577 a7be bec1 043f
00000190: 2c43 523e 23ec 063e 0b0f ac3e 777a c93d
000001a0: d0eb 413e 0467 4abe 28d8 9c3d 7690 2bbe
000001b0: c5f9 b63e 19f7 383e 67d7 69be e223 943e
000001c0: a5e6 aa3e be30 333e 155a 51bd af3c 3cbe
000001d0: 7e46 cabb a943 1a3e 1af9 773e e478 81be
000001e0: ead6 8d3e 9578 8e3f b8ea 043f 4d5d 863f
000001f0: 2cf1 0840 0c2b 9bbf be93 7cbe 453b dbbe
00000200: ef4c c63f 5832 37be 2a21 cdbe 733c 273f
00000210: c807 babe 0072 783f 97f0 07bf 00d0 1fc0
00000220: 223f 0540 dc2c ff3e 2dbb b33e c090 17bf
00000230: d358 ccbc 65e6 d33e 02dc 183f e533 f23d
00000240: d7bf 843e 798a 08bf 99c0 503e fb8b aabe
00000250: 7c10 90bf e8a1 243e c15d acbe 6d3f 1b3f
00000260: 0add 06be dea9 1dbe 86bd 28bf 0163 a4bf
00000270: 207d 713f 0f01 173f 1cba 0cbe 7ccb e73d
00000280: bd51 bdbd 563d 5c3f 3102 5a3f a9ee a13c
00000290: d7f0 e83e 95d0 a4bf e68b 0a3e 20d4 d6be
000002a0: 879d 533e d64f ff3e ba1e 1cbf 3b0a 533f
000002b0: bbdd cd3e 7d6c 153d 6836 98bf 8d7e 8abe
000002c0: 913f b13f 3ec3 a33f c9b1 84bd b6ba 483e
000002d0: 9028 35bd c1e2 933e 6582 a43e a833 4e3e
000002e0: 6233 423e 7130 edbd 5457 183e 08f1 7ebd
000002f0: 83b5 e53c 07a3 9bbb d41a 10be c76e 9d3c
00000300: e581 f03d f639 e3bd ccf4 7bbe ccb7 27be
00000310: 6950 1b3e 39e3 a0bd 1462 8a3e 2ed7 8abe
00000320: 6ee5 993c 49a8 2ebe 638d db3d 4f42 023e
00000330: 4ac1 f23e 8276 ca3d f4f8 b03d 0529 613e
00000340: 509a 3bbe 0d1d b43d 6f5e 87be 3449 a13d
00000350: ca25 28be e9ab 6b3e 9da7 84be 1eaf f0be
00000360: fe2c 203e 20c5 fb3e daec fc3d ff5b a03d
00000370: d8ff b1be b8c8 ac3e 3997 ebbd 2424 5c3e
00000380: 5bd0 8b3e bb9d 29be 9141 ab3e 9e70 b6be
00000390: 1b1d 733e a6ec 8e3e 08de cfbe 4f46 a93e
000003a0: a648 3bbe 2a48 053e 4f4f 04bd 6d23 e5bd
000003b0: a6bb 07be 45e4 b63e bab0 1ebe d686 3e3e
000003c0: 4c60 243e b541 df3e 56f2 3f3e d4b2 aa3d
000003d0: fc52 703e ea08 edbd be39 16be 6694 f9bd
000003e0: 3918 b13e 3512 d03d 93b3 803d 7702 383e
000003f0: 9815 0b3d aaf8 653d 34f4 88bc 5ffc 7ebe

lstm1.bias_ih f4 [80]
0.2450275 0.029769892 0.06736867 0.29106396 0.72158724 -0.0007031395 0.387491 -0.15544619
0.7279909 0.22903976 0.19181883 0.050405227 0.17086059 0.45561743 0.09581861 0.33416435
-0.1582995 0.3242452 0.067127205 0.15555012 0.2908763 0.73508304 0.31688705 0.30923995
0.003693409 0.14404064 0.5934808 0.56728965 0.10280812 0.2591404 0.29818213 -0.046828274
0.2500297 0.42167497 -0.025294155 0.0690699 0.2553899 0.34054166 0.9356176 0.06044638
0.03632506 -0.0018324106 0.05146271 0.13071358 0.35998368 -0.3192575 0.22814149 -0.035779033
0.29239056 0.06863386 -0.30676055 -0.041013703 -0.2636083 0.124833584 -0.3284176 -0.05208801
0.18963698 0.4336372 -0.28186348 0.22034311 -0.0408929 0.060844272 0.14894584 0.12522008
0.12601988 -0.053065054 -0.05990637 0.32288724 0.41410214 0.1276043 0.11712518 0.064870924
0.003445262 -0.123257875 -0.09478149 -0.12418187 0.22808616 0.18293457 0.3921629 0.07573469
00000000: 7de8 7a3e fddf f33c 96f8 893d 5606 953e
00000010: f1b9 383f e552 38ba 3865 c63e 492d 1fbe
00000020: 9d5d 3a3f 6689 6a3e 286c 443e b675 4e3d
00000030: 14f6 2e3e b046 e93e 8c3c c43d 9717 ab3e
00000040: 4419 22be 7803 a63e fd79 893d 8848 1f3e
00000050: bded 943e 672e 3c3f 053f a23e b354 9e3e
00000060: 1f0d 723b 647f 133e 5cee 173f e539 113f
00000070: 108d d23d 0dae 843e 54ab 983e 01cf 3fbd
00000080: e503 803e c8e5 d73e b035 cfbc 8574 8d3d
00000090: 77c2 823e 7a5b ae3e a384 6f3f a096 773d
000000a0: 96c9 143d 7f2d f0ba 90ca 523d c8d9 053e
000000b0: c84f b83e b875 a3be ec9d 693e 098d 12bd
000000c0: 37b4 953e e98f 8c3d b80f 9dbe fcfd 27bd
000000d0: abf7 86be c0a8 ff3d 5a26 a8be 3d5a 55bd
000000e0: 3230 423e b205 de3e 6950 90be a0a1 613e
000000f0: 507f 27bd d837 793d 4285 183e b139 003e
00000100: 5b0b 013e be5a 59bd 6260 75bd 7a51 a53e
00000110: 3205 d43e b4aa 023e 54df ef3d 0cdb 843d
00000120: e8c9 613b a06e fcbd cc1c c2bd 1053 febd
00000130: 6b8f 693e 3353 3b3e 93c9 c83e ca1a 9b3d

lstm1.bias_hh f4 [80]
0.06556173 0.13361108 -0.077241294 0.17529991 0.50246054 -0.059526358 0.4849519 -0.013891593
0.72466666 0.18579845 0.20729832 -0.048682544 0.39417943 0.25197104 0.39297095 0.064971484
0.10007012 0.06399798 -0.09550552 -0.11282289 0.097981 0.73004514 0.3436974 0.22919793
0.034647603 0.53207505 0.45098364 0.52568483 0.10558244 0.46363595 0.48836327 0.3053628
0.5430773 0.32029504 0.22294992 0.033491943 0.09569866 0.36016625 0.5942317 0.25083044
-0.110473156 0.17882945 -0.090991095 -0.00959769 0.19188581 -0.3977421 0.21681511 -0.22751023
0.2430932 0.029923873 -0.30736506 0.30793378 -0.114515044 -0.004967585 -0.13874021 0.018677277
0.13911042 0.17610554 -0.2902967 0.18787153 0.07854068 0.3032422 0.20008588 0.16856325
0.017179029 -0.09742149 -0.021623734 0.10434775 0.45099345 0.3464821 0.12797546 0.24879459
-0.09106099 0.23267709 -0.07283708 -0.17147778 0.25264752 0.08401161 0.17622547 0.04110261
00000000: 3a45 863d 58d1 083e af30 9ebd d281 333e
00000010: 41a1 003f e9d1 73bd 9e4b f83e 9099 63bc
00000020: c183 393f f341 3e3e 0346 543e 5967 47bd
00000030: e3d1 c93e 5902 813e 7d33 c93e c50f 853d
00000040: 90f1 cc3d 5f11 833d 6698 c3bd b00f e7bd
00000050: 43aa c83d 3de4 3a3f 1bf9 af3e ddb2 6a3e
00000060: a5ea 0d3d 1236 083f 54e7 e63e 4893 063f
00000070: 9b3b d83d b161 ed3e c00a fa3e 8358 9c3e
00000080: 1d07 0b3f b6fd a33e fc4c 643e d92e 093d
00000090: a9fd c33d b667 b83e 921f 183f d96c 803e
000000a0: c03f e2bd 111f 373e 8a59 babd a13f 1dbc
000000b0: b77d 443e daa4 cbbe c804 5e3e 71f8 68be
000000c0: 6ced 783e e922 f53c f45e 9dbe 7fa9 9d3e
000000d0: dd86 eabd 20c7 a2bb ea11 0ebe 1701 993c
000000e0: f672 0e3e 0355 343e c5a1 94be 6561 403e
000000f0: f0d9 a03d 9042 9b3e 50e3 4c3e d89b 2c3e
00000100: 09bb 8c3c eb84 c7bd 4224 b1bc 46b4 d53d
00000110: 9de8 e63e 1a66 b13e 000c 033e 02c4 7e3e
00000120: 2f7e babd e742 6e3e 9b2b 95bd df97 2fbe
00000130: 045b 813e 470e ac3d 7374 343e 365b 283d

lstm2.weight_ih f4 [80, 1]
0.0468048 0.1982438 0.43334225 0.8922275 0.5367966 -0.48377505 0.7163032 0.703641
-0.41702983 0.35101262 -0.18206213 -0.31140962 0.68996066 -0.104397535 1.4224246 -0.07998982
-0.016602773 0.35450318 0.2793359 0.19406384 -0.31500047 0.266863 0.21785386 -0.24054931
0.22998463 -0.63006717 0.3319196 0.47925666 0.07867548 0.28843912 0.11351844 0.023908576
-0.7340035 0.34324798 0.07924054 -0.23218663 -0.2935143 0.44939852 0.85798377 0.5377021
-0.04529395 0.28170604 -0.30932614 -0.3876991 -0.033785194 -0.3178146 -0.06282271 0.2043521
0.11988765 0.2343685 0.16537315 0.10659611 0.49682307 0.16412173 -0.1223935 0.7171908
-0.04240897 -0.06033573 -0.1292447 -0.119207315 -0.10600027 0.79767114 -0.0152437985 0.54470897
0.26209235 0.694979 0.2523615 -0.7044272 -0.13665877 0.1451031 0.55328864 -0.23011348
-1.340232 1.1548616 -0.055272184 -0.3994379 -0.20908765 -0.057740174 1.1777668 0.66855925
00000000: 64b6 3f3d 6c00 4b3e 09df dd3e 0569 643f
00000010: 816b 093f 5db1 f7be a65f 373f d121 343f
00000020: ef84 d5be edb7 b33e 7f6e 3abe 1571 9fbe
00000030: 43a1 303f 60ce d5bd 0212 b63f b4d1 a3bd
00000040: 8a02 88bc 7181 b53e 1d05 8f3e acb8 463e
00000050: be47 a1be 44a2 883e 1515 5f3e 8f52 76be
00000060: 1781 6b3e 154c 21bf 5ef1 a93e 2161 f53e
00000070: 9c20 a13d 4bae 933e 5b7c e83d ebdb c33c
00000080: a7e7 3bbf 33be af3e dd48 a23d 55c2 6dbe
00000090: 8247 96be 9017 e63e d3a4 5b3f d8a6 093f
000000a0: 2686 39bd c63b 903e ff5f 9ebe 7f80 c6be
000000b0: 5862 0abd 98b8 a2be 31a9 80bd ad41 513e
000000c0: a887 f53d 4cfe 6f3e 9457 293e 104f da3d
000000d0: 985f fe3e 870f 283e 71a9 fabd d199 373f
000000e0: 07b5 2dbd 9922 77bd b958 04be f722 f4bd
000000f0: ab16 d9bd 2d34 4c3f 20c1 79bc 0c72 0b3f
00000100: f830 863e 25ea 313f 8735 813e 5755 34bf
00000110: 47f0 0bbe e895 143e 53a4 0d3f dea2 6bbe
00000120: b98c abbf 81d2 933f 1665 62bd 2083 ccbe
00000130: 131b 56be f680 6cbd 10c1 963f b326 2b3f

lstm2.weight_hh f4 [80, 20]
-0.1007292 0.24566703 -0.027788347 0.3476048 0.14951776 -0.3182193 -0.18174969 -0.54342407
-0.25355268 -0.27925298 0.10721026 -0.098611794 0.16602482 -0.15614179 -0.1678564 -0.39051336
0.30072525 0.037121344 0.17836542 -0.1499221 0.09539734 0.1708784 0.1987139 0.32766026
0.16335092 -0.21268746 -0.047630932 -0.060352825 -0.009369208 0.08061172 0.11179393 0.38323367
0.13006543 0.03088426 0.021481484 0.012892344 0.35038987 0.36626846 -0.2010955 -0.017377205
-0.044129584 -0.08345626 0.26799756 0.04730571 -0.061859258 -0.4563998 -0.23375988 -0.0024079524
0.2209924 0.15468329 0.41639826 0.1476431 -0.5974025 -0.10353114 -0.19717096 0.17323944
-0.24826506 -0.11844017 -0.38194034 0.44878185 0.65101284 -0.13330851 -0.18061581 -0.19749232
-0.23410663 0.9095399 1.21417 0.12928964 -0.86730325 1.1672862 -0.29922056 0.49642515
0.5240575 -1.0103291 -0.03956055 -0.36788124 0.2980833 0.8661081 -0.05344102 0.17394601
-0.014595736 0.16373874 0.09070512 -0.3187445 -0.2142978 0.08090769 0.62434065 0.07837673
0.036700252 0.1565066 -0.930408 -0.061307926 0.26523963 0.2129647 0.0214719 -0.059243422
-0.015834482 -0.16926637 1.0524701 -0.07866446 -0.14963643 -0.03113153 0.07194938 0.070583455
0.23827544 0.12839384 -0.1800135 -0.1454132 0.059584633 0.11672908 0.055161748 -0.21296911
0.06032969 -0.08395656 -0.20952925 0.03166801 -0.133694 -0.1180135 0.73803306 0.23551232
-0.01702075 -0.31767198 -0.09803749 -0.100693524 -0.4181255 -0.3811201 0.40560916 0.14715536
0.36395136 0.09710908 0.2800752 0.060593773 0.056030426 -0.31443834 0.087757505 0.29027238
-0.24092294 -0.053423036 -0.62747675 0.4709378 0.5559763 -0.19433 0.18363069 0.21450801
-0.041765943 0.26744184 0.006923933 -0.33742282 -1.6678123 0.39260456 -0.3104121 0.49697775
0.26984364 -0.3584725 -0.9193754 -0.7460011 0.12132023 0.8896468 0.35842565 0.2676886
0.20684747 0.303839 0.03382536 0.26856032 -0.06492769 -0.4347377 0.0018821309 -0.06171879
-0.060824383 -0.36070916 -0.15302618 0.033137478 -0.45360583 0.108127885 -0.28965238 -0.08593991
0.50068295 -0.01163417 0.22162278 -0.5058113 -0.34944066 0.13594434 0.010948959 -0.27339977
-0.34560934 -0.20177294 0.08656351 0.29442012 0.13081475 -0.057743974 0.0871197 -0.4183808
0.5140306 0.47182655 0.30390802 0.26588285 -0.43448898 -0.35496032 0.45336252 -0.41679963
0.0005813028 0.23413149 0.35630712 0.107433155 -0.24925777 0.16538303 0.104602955 0.20766833
0.12724641 0.18702008 -0.3634673 0.088832945 -1.3925114 -0.24443938 -0.22778116 0.028036376
-0.017610578 0.20939703 -0.039270557 -0.2594628 -0.24669719 -0.29608423 -0.2190475 0.21894304
-0.4531754 0.42982066 0.12980379 -0.1996563 -0.07051651 -0.50332886 0.36721852 0.21936171
0.40359873 -0.08765075 -0.11111543 -0.19692093 0.22252569 -0.12345605 -0.7363403 0.5161981
0.1793791 -0.1263151 -0.21545456 0.058275532 -0.155146 -1.2604178 -0.3276488 -0.027453296
0.119471624 0.031432565 -0.2313675 0.1798998 -0.33207664 -0.002142776 -0.15211952 -0.21667938
00000000: 1c4b cebd 2390 7b3e 63a4 e3bc 42f9 b13e
00000010: 2f1b 193e a4ed a2be 971c 3abe d71d 0bbf
00000020: a8d1 81be 3ffa 8ebe 0e91 db3d fbf4 c9bd
00000030: 6902 2a3e a2e3 1fbe 8ce2 2bbe 5ef1 c7be
00000040: a9f8 993e 8d0c 183d 6da5 363e 2e85 19be
00000050: ae5f c33d bffa 2e3e a87b 4b3e 16c3 a73e
00000060: 7745 273e beca 59be a718 43bd 8634 77bd
00000070: 4e81 19bc c217 a53d 37f4 e43d 3437 c43e
00000080: df2f 053e fd00 fd3c f0f9 af3c 693a 533c
00000090: 4d66 b33e 8a87 bb3e fbeb 4dbe a45a 8ebc
000000a0: 39c1 34bd 1eeb aabd fa36 893e a2c3 413d
000000b0: 2260 7dbd 3cad e9be c05e 6fbe bdce 1dbb
000000c0: d54b 623e 4c65 1e3e 2732 d53e c12f 173e
000000d0: 5fef 18bf 2208 d4bd 2fe7 49be ae65 313e
000000e0: 3239 7ebe c390 f2bd af8d c3be bcc6 e53e
000000f0: c7a8 263f 0782 08be 5af3 38be 6d3b 4abe
00000100: a6b9 6fbe 9bd7 683f ec69 9b3f 8164 043e
00000110: 9607 5ebf a269 953f 7033 99be 702b fe3e
00000120: a228 063f 7752 81bf 3e0a 22bd ee5a bcbe
00000130: 609e 983e 43b9 5d3f f9e4 5abd e71e 323e
00000140: f422 6fbc 21ab 273e 9bc3 b93d 7b32 a3be
00000150: e270 5bbe eeb2 a53d cad4 1f3f fb83 a03d
00000160: 0153 163d 4443 203e 382f 6ebf 051e 7bbd
00000170: 7dcd 873e 6b13 5a3e d7e5 af3c 3ba9 72bd
00000180: 51b7 81bc 2a54 2dbe 57b7 863f d51a a1bd
00000190: 4b3a 19be 8d07 ffbc 325a 933d 0f8e 903d
000001a0: 7afe 733e ad79 033e 7555 38be 33e7 14be
000001b0: 040f 743d a80f ef3d 49f1 613d 9314 5abe
000001c0: 441c 773d 6bf1 abbd d68e 56be 51b6 013d
000001d0: 14e7 08be 10b1 f1bd bcef 3c3f 242a 713e
000001e0: 1a6f 8bbc e7a5 a2be e1c7 c8bd 6838 cebd
000001f0: 8c14 d6be 2c22 c3be 01ac cf3e e5af 163e
00000200: d557 ba3e 20e1 c63d 0466 8f3e 2d31 783d
00000210: 2980 653d 10fe a0be 35ba b33d 959e 943e
00000220: 81b4 76be 1dd2 5abd 51a2 20bf c21e f13e
00000230: 7654 0e3f 72fe 46be af09 3c3e fda7 5b3e
00000240: c412 2bbd 23ee 883e 29e2 e23b afc2 acbe
00000250: e07a d5bf 7703 c93e 56ee 9ebe de73 fe3e
00000260: f228 8a3e b589 b7be 305c 6bbf eef9 3ebf
00000270: be76 f83d e5bf 633f 9183 b73e 7b0e 893e
00000280: d3cf 533e c990 9b3e 768c 0a3d bd80 893e
00000290: cff8 84bd f195 debe d5b1 f63a d8cc 7cbd
000002a0: fd22 79bd dfae b8be e5b2 1cbe 2abb 073d
000002b0: 063f e8be 2772 dd3d 514d 94be 4301 b0bd
000002c0: c22c 003f 3f9d 3ebc 15f1 623e d97c 01bf
000002d0: e3e9 b2be fe34 0b3e 4363 333c 0efb 8bbe
000002e0: b5f3 b0be 919d 4ebe 3648 b13d 3cbe 963e
000002f0: 4df4 053e f284 6cbd d06b b23d 0236 d6be
00000300: 8297 033f 4093 f13e d599 9b3e cc21 883e
00000310: 5775 debe 5cbd b5be 221f e83e c366 d5be
00000320: 9262 183a 2ac0 6f3e e36d b63e ea05 dc3d
00000330: 6e3d 7fbe 2b5a 293e 133a d63d 02a7 543e
00000340: e24c 023e 3182 3f3e 6318 babe 0cee b53d
00000350: d03d b2bf 514e 7abe 773f 69be 8bac e53c
00000360: 0f44 90bc 2d6c 563e 2ada 20bd 4fd8 84be
00000370: 309e 7cbe 5a98 97be fd4d 60be 9b32 603e
00000380: 9b06 e8be 7411 dc3e 49eb 043e b372 4cbe
00000390: f66a 90bd 29da 00bf 1104 bc3e 5ba0 603e
000003a0: 7ea4 ce3e 3d82 b3bd 7d90 e3bd a4a5 49be
000003b0: c6dd 633e 87d6 fcbd cc80 3cbf 8f25 043f
000003c0: 28af 373e bf58 01be 1fa0 5cbe 53b2 6e3d
000003d0: 98de 1ebe 5f55 a1bf 95c1 a7be bce5 e0bc
000003e0: 8aad f43d 6fbf 003d 9aeb 6cbe a737 383e
000003f0: f305 aabe d16d 0cbb 38c5 1bbe 33e1 5dbe

lstm2.bias_ih f4 [80]
0.30337855 0.2284541 0.12861371 0.08185313 -0.08659367 0.076767154 0.15565988 0.63373417
0.09977302 -0.18582438 0.16478397 0.0016047948 0.10797287 0.05566299 0.66441065 0.4411385
0.17762597 0.26868302 -0.20215441 -0.16706832 -0.041928593 0.3632629 0.10083689 0.1328495
0.25015417 -0.0035287538 0.46073392 0.4781944 0.3534576 0.4210202 -0.15794612 0.06857048
0.12982981 0.043213278 0.09495082 0.30538508 -0.086523004 0.28331956 0.43112132 0.29496622
0.05178721 -0.05781048 0.07237929 0.02353244 0.1623711 -0.094500296 0.13279524 -0.15986075
-0.18105371 -0.0010651749 -0.027036397 -0.058593262 0.1746732 0.14286089 -0.09771086 -0.07319237
-0.013617969 0.21712075 0.024332765 -0.006767819 0.25152028 0.37760335 0.30767533 0.22206692
0.541479 0.29132894 0.38236523 0.090433225 0.38775083 0.36685887 0.23462161 0.21717165
-0.06369174 -0.06792887 0.18251546 -0.034864616 0.41056556 0.25448555 0.089884624 0.056118757
00000000: 6f54 9b3e dfef 693e 50b3 033e 9da2 a73d
00000010: 0658 b1bd 1938 9d3d 4e65 1f3e 673c 223f
00000020: cc55 cc3d bf48 3ebe 21bd 283e fa57 d23a
00000030: e120 dd3d e0fe 633d d116 2a3f e8dc e13e
00000040: 95e3 353e d290 893e 9101 4fbe f513 2bbe
00000050: 51bd 2bbd 98fd b93e 9283 ce3d b309 083e
00000060: 3514 803e aa42 67bb 51e5 eb3e e5d5 f43e
00000070: 65f8 b43e f68f d73e a1bc 21be ae6e 8c3d
00000080: 1bf2 043e 6800 313d 9375 c23d 6f5b 9c3e
00000090: f932 b1bd 430f 913e efbb dc3e d005 973e
000000a0: d31e 543d afca 6cbd 983b 943d 1bc7 c03c
000000b0: 9c44 263e 5f89 c1bd 7afb 073e 89b2 23be
000000c0: 2566 39be 579d 8bba 6f7b ddbc 7dff 6fbd
000000d0: 88dd 323e 204a 123e a21c c8bd e2e5 95bd
000000e0: e71d 5fbc e754 5e3e 8255 c73c 95c4 ddbb
000000f0: 44c7 803e 3a55 c13e 9f87 9d3e 8365 633e
00000100: 5e9e 0a3f 1129 953e 60c5 c33e 0e35 b93d
00000110: 4787 c63e edd4 bb3e a640 703e 3f62 5e3e
00000120: d170 82bd 4b1e 8bbd 55e5 3a3e 33ce 0ebd
00000130: a635 d23e ee4b 823e 6e15 b83d c8dc 653d

lstm2.bias_hh f4 [80]
-0.030240256 0.25338525 -0.19285038 -0.019208929 0.21016814 -0.18272725 0.34156516 0.37136638
-0.075116605 0.024716629 0.16280724 0.19533457 0.33552936 -0.3065016 0.5286449 0.30440432
0.17631187 0.38470748 -0.023013609 0.04433002 0.20671256 0.32401192 -0.02718137 0.008188787
0.19325973 -0.11551176 0.5324664 0.12470426 0.005623814 0.44195408 -0.23927844 -0.038444795
0.20860358 0.2234571 0.06487053 0.2889818 -0.020565176 0.44524312 0.09628422 -0.02242072
0.18812957 0.10043837 0.0036422343 -0.059895698 -0.057683434 0.13481183 0.12015392 0.007185973
0.0090475725 -0.19282097 0.17300059 0.2535892 0.1816351 -0.0972549 -0.2049704 -0.10532919
0.017058007 -0.12295342 -0.10182859 -0.11077674 0.37799498 0.3040803 -0.031770337 0.22242999
0.27643743 0.22706428 0.357246 0.13379659 0.0064259297 0.2230467 0.22144684 0.2956242
0.07299049 -0.037602868 0.03459457 0.20888422 0.18509506 0.28990525 -0.123489946 0.19651039
00000000: 6aba f7bc b6bb 813e 927a 45be 0b5c 9dbc
00000010: 5136 573e da1c 3bbe a1e1 ae3e bc23 be3e
00000020: bcd6 99bd 877a ca3c f1b6 263e c905 483e
00000030: 81ca ab3e c7ed 9cbe 4655 073f e2da 9b3e
00000040: 198b 343e 61f8 c43e 0987 bcbc 6593 353d
00000050: 75ac 533e e4e4 a53e 77ab debc 432a 063c
00000060: e1e5 453e 6e91 ecbd b84f 083f f264 ff3d
00000070: f947 b83b ce47 e23e 6805 75be 4a78 1dbd
00000080: 2d9c 553e f0d1 643e d7da 843d 6cf5 933e
00000090: 4d78 a8bc e8f6 e33e a930 c53d a8ab b7bc
000000a0: 0aa5 403e a2b2 cd3d 8db2 6e3b 3155 75bd
000000b0: 7745 6cbd 1d0c 0a3e 4213 f63d 5078 eb3b
000000c0: 453c 143c dc72 45be 1127 313e 72d6 813e
000000d0: 8dfe 393e 942d c7bd c3e3 51be d5b6 d7bd
000000e0: 3cbd 8b3c 01cf fbbd 828b d0bd eade e2bd
000000f0: 8f88 c13e 6ab0 9b3e 9d21 02bd b0c4 633e
00000100: 3589 8d3e 8a83 683e f3e8 b63e f901 093e
00000110: 9b90 d23b 5b66 643e f6c2 623e 0e5c 973e
00000120: 0a7c 953d 7705 1abd 09b3 0d3d bfe5 553e
00000130: 8f89 3d3e 766e 943e 4ce8 fcbd 053a 493e

linear.weight f4 [1, 20]
-0.30397043 -0.09109871 0.2352037 -0.7455738 0.8055663 1.5097278 -0.069013335 0.98004293
-0.03787454 0.22860593 2.6621852 -0.68505746 -1.6898055 -1.3841902 0.45896602 1.0513768
-0.6173303 0.079642944 1.9968768 -0.2217181
00000000: 03a2 9bbe f691 babd 3dd9 703e eddd 3ebf
00000010: 9839 4e3f c33e c13f dd56 8dbd 18e4 7a3f
00000020: 5522 1bbd ac17 6a3e 3e61 2a40 ed5f 2fbf
00000030: 8c4b d8bf 252d b1bf 98fd ea3e 8493 863f
00000040: 5c09 1ebf d71b a33d a999 ff3f 120a 63be
